best_brain.pt (torch, 27837 bytes, 2 tensors)

w1 f4 [20, 240]
00000000: 568e 39c0 7e58 1440 34a4 40c0 299f 473f
00000010: 19ef 1dbe 3e63 3ebf 7329 6fc0 c9c2 3540
00000020: 2920 c2bf 7df6 a93e a80e 7b3f 3362 c83f
00000030: 41ce 903f 51c6 9fbe e401 273f 4d3c be3e
00000040: b373 0c40 1092 283f ef8e b43e b5ee 8ebf
00000050: b033 e4be 98ba 733e 883a dbbe 6f0a c0be
00000060: 6d34 513f 2c66 7dbd 650d 6dbf 1bd3 8ebf
00000070: d938 0c3f ff7e bd3f 3d02 863f 7a3c d1be
00000080: dc4b 603f c459 b2bf d2b6 f33e de89 813f
00000090: 7cbb 7cbf 67c2 0f3f 4215 68be 2bba 59bf
000000a0: 9d38 b43e 21eb ddbf 828f 003e b5ca 3bbf
000000b0: 6672 52bf 036d a23f b226 fd3d 9e47 71bf
000000c0: b13c a6bf af68 e6bf c1b0 53bf d430 6fbf
000000d0: 7c4b b13e 0a6c 28be aaad 513f 13d2 0d3f
000000e0: 371d 003f ccb2 5b3f 13a1 89bf 201b 533f
000000f0: de22 28be be7a 903f 6f20 47bf dd30 c9be
00000100: f665 1e3e 0b37 9ebf 7af8 063f 7854 37bf
00000110: 8c12 103f ff86 ce3f c371 bbbf 150f 50bd
00000120: be79 acbf f410 48bf d515 60bf 122d ef3f
00000130: 5c2e 19be f789 c6bd 21b3 fd3d 3628 ff3f
00000140: 5a4d dc3e faec 4abf 23b4 3fbf 7562 7bbf
00000150: 6a7b 5c3f a021 b9bf 3ab9 b63e 7c4e 44bf
00000160: df9d a6be 86f7 5cbf 6e21 603f 4a5a 65bf
00000170: bee5 2d40 d0fb 503d 1f50 b2be 1258 b4bf
00000180: 5c87 6dbf d4dd d53f bc03 f0be 750f ebbe
00000190: f349 72be 54b3 e53f 0213 ac3f 499c b23f
000001a0: 2008 eb3e a0ea 0abf dd13 ab3f 807c 2f3f
000001b0: c699 1abf 2163 8ebe 9b98 c53e 5c75 543e
000001c0: 2470 6fbe db1d 793f b1c3 4fbe dc09 5b3f
000001d0: 3120 88bf c29c 19bf 038d dd3d d269 c1bf
000001e0: 4d7c f6bf 68ea 1640 f4d8 973d 431a 64be
000001f0: 9e88 0fbe 0d4f f63e 916c b4bf 7e51 4140
00000200: 2668 2abf 4062 d6be 1a6d ffbe 910b 3940
00000210: 5b08 a03f 2e5a c13f c20c e5be 39f6 4dbe
00000220: e066 5f3e d47c 45bf ce3b dfbf 2ea9 e1bd
00000230: 808c a93f 7e33 07bf 2525 36bf 74b5 8ebf
00000240: 8f83 3e3f 1e0d 943f 9779 823f 33f2 69be
00000250: 8b1d 0640 6af2 df3f c6a4 9bbf 044f 0840
00000260: bccb 04c0 a695 943e 723f 48bf 51f8 6bbf
00000270: 297e 603f aa0e 9b3e 138c 153f 8ee9 9bbf
00000280: 6e96 aabf a1ba 853f 6c31 23bf 3ec0 eb3e
00000290: d0d2 b8be 16e6 04c0 63f1 88bf 05ac e83d
000002a0: b67e c73c 8f3c 173e 799d 6f3e b1e7 20bf
000002b0: b09f 503f 70ac d9be 76f8 0bc0 4100 ffbf
000002c0: 6ea7 e1bd 6306 c83f 0043 953e a64d a33f
000002d0: fb5c d2bf 3884 41be c535 6dbf fdec 3abf
000002e0: 1ac6 74be f5d4 acbf 6a28 71be 58f0 27be
000002f0: 693a 2e3f 6d9f 893f 1a25 94bf 6760 8fbf
00000300: 2a1b 3e3f d059 52bf d804 cf3e 1371 21bf
00000310: e8e2 28be ad4a b73f 50a0 af3f 9f0d 8f3f
00000320: a715 003f 0d8f c2be 7923 84bf 4828 6e3f
00000330: 38f9 75bf ada2 b5bf 80ec ae3e fef0 323f
00000340: 50ed 2cbc a522 5bbe 5c3d e03d dd9c 9ebd
00000350: 3c8d 52bf a4b5 a2bf 7e53 58be 385c 5a3f
00000360: 38d7 f23e 66d5 703d 68a9 af3e 9f28 2cbf
00000370: a7ed 0740 d603 42bf e1a3 003f 4891 6ebe
00000380: f015 da3c 7d34 c13f becf 433f 4e1a 2a3f
00000390: c249 76bf e467 8ebd c48a b6bf 4d56 fa3f
000003a0: 9908 c0be 21f7 34bf 14b3 bb3e 94cf dd3e
000003b0: 15d2 c33d fea3 1c3f 74ad 05bf 661e 55bf
000003c0: 14c4 f4be 4be0 893f 6996 bc3f 3de5 303f
000003d0: 0a06 3440 750d 843f 6d1a 7dbf c413 65bf
000003e0: 9413 52bf 855e 0540 49f5 4cbf 2cd6 1fc0
000003f0: 49e4 d1bf f1e1 aabf 9831 c03d 1c47 a1bf
-2.8993125 2.3179011 -3.0100222 0.77977234 -0.1542324 -0.7437018 -3.7369049 2.8400137
-1.5166065 0.33195868 0.9806924 1.5654968 1.1312944 -0.3120599 0.6523726 0.3715538
2.1945617 0.65847874 0.352653 -1.1166598 -0.44570684 0.23801649 -0.42818093 -0.3750796
0.8172062 -0.061865017 -0.92598563 -1.1158174 0.5477424 1.4804381 1.0469433 -0.40866452
0.8761575 -1.3933644 0.47600418 1.0120199 -0.9872358 0.5615601 -0.22664359 -0.85049695
0.35199443 -1.7337381 0.12554744 -0.7335618 -0.8220581 1.2689518 0.12360896 -0.94249904
-1.2987272 -1.8000697 -0.8269158 -0.9343388 0.34627903 -0.16447464 0.81905615 0.5539867
0.5004458 0.858197 -1.0752281 0.82463264 -0.16419551 1.1287458 -0.77783865 -0.39295092
0.15468583 -1.2360548 0.52722895 -0.71613264 0.562783 1.6134948 -1.4644092 -0.050795633
-1.3474653 -0.7815087 -0.87533313 1.8685629 -0.14959091 -0.096942835 0.12387682 1.9934146
0.43027765 -0.7926785 -0.7488424 -0.9819711 0.86125815 -1.4463387 0.35688192 -0.7668226
-0.3254232 -0.8631519 0.8755101 -0.89590895 2.7171474 0.051021397 -0.34826753 -1.4089377
-0.92784667 1.6708322 -0.4687785 -0.4591023 -0.23661022 1.7945352 1.3443301 1.3953944
0.45904636 -0.5426426 1.3365437 0.68549347 -0.6039089 -0.27810004 0.3859299 0.20747894
-0.23382622 0.9731118 -0.20289494 0.8556192 -1.0634824 -0.6000482 0.108179115 -1.5110419
-1.9256684 2.358057 0.074144274 -0.22275643 -0.14016959 0.48107186 -1.4095632 3.020599
-0.6656517 -0.41871834 -0.49887925 2.891331 1.250255 1.5105646 -0.44736296 -0.20113458
0.21816587 -0.771436 -1.7440126 -0.110185966 1.3246002 -0.52812946 -0.7115043 -1.1149125
0.7441949 1.1566503 1.0193356 -0.22846298 2.0955532 1.7495854 -1.215966 2.1298227
-2.074935 0.29020423 -0.7822181 -0.92175776 0.87692505 0.30284625 0.5841686 -1.218065
-1.3327157 1.044758 -0.63747287 0.46045107 -0.36098337 -2.0765433 -1.0698665 0.11360935
0.024352413 0.14769195 0.23399915 -0.62853533 0.81493664 -0.42514372 -2.1870399 -1.9921952
-0.11018263 1.5626949 0.2915268 1.2758071 -1.6434625 -0.18898094 -0.9266017 -0.73017865
-0.23903695 -1.3502489 -0.23550573 -0.16400278 0.68057877 1.0751778 -1.1573822 -1.1201295
0.742602 -0.82168293 0.40433383 -0.6306316 -0.16492808 1.4319664 1.3720798 1.1176032
0.5003304 -0.37999764 -1.0323325 0.93030214 -0.960834 -1.419027 0.3416481 0.69898975
-0.010554627 -0.21399935 0.10949203 -0.07744763 -0.82246757 -1.2711682 -0.211256 0.85296965
0.47429824 0.058797263 0.34308934 -0.6724948 2.1238801 -0.75787103 0.5025006 -0.23297608
0.026621789 1.5094143 0.76488864 0.6644639 -0.96206295 -0.06953409 -1.4261098 1.9557587
-0.3750656 -0.7068959 0.36660063 0.43322432 0.09561554 0.6118773 -0.52217793 -0.8324951
-0.47805846 1.0771574 1.4733402 0.6909979 2.8128686 1.0316607 -0.9886845 -0.89483285
-0.82061124 2.083894 -0.80061775 -2.497447 -1.6397792 -1.3350202 0.09384459 -1.2599826

w2 f4 [240, 7]
00000000: 566e b1bf a443 1abf 3414 2a40 dd28 fcbf
00000010: d3fc ea3f 9c01 c0bf 20ba 63c0 21ed 0fbf
00000020: 395d 0940 25be a03e 67ae af3f 3f7c 383f
00000030: 6f07 cd40 b713 9340 0f8f 43c0 44ec 2a40
00000040: b328 833f e6a3 dfbf d5a6 32bf 4717 b9c0
00000050: 2e8b d2c0 202f 08c0 55f9 ef3f 01c3 183f
00000060: 5db1 06bf fd5d 9f3f 48a9 f9bf 5160 0f3d
00000070: 2e9d 4cbf 407f 0e40 ea54 9c3f 5176 b7bf
00000080: bfb5 32bf 2338 b340 8273 d840 0d4b 1dbf
00000090: 7721 443f 833b 12c0 7a25 7fbf 2901 77bf
000000a0: 4220 8dc0 9e7a 383f 7f62 96be 919c 3740
000000b0: 3944 813f 20ba e93f 7cd9 343f 5ed9 80c0
000000c0: 718e 98c0 8bbe 0a40 f4b5 20bd 52d2 db3f
000000d0: 83b7 acbf 81c9 cd3f 203b 903e 1ca9 6ec0
000000e0: a0b4 d33f 20ff 72bf cadb 0c3e bcc5 6f3f
000000f0: baa7 a9be 754a bbbd 30e8 93bd fe41 f5be
00000100: df4e f43f ad20 e0bf 244c fe3f fc08 e73f
00000110: cb7e 69bf 5d13 ad3f d1ad 09bf 8be0 d6bf
00000120: 2469 6cbf b65b a5be b3d0 893f f6fd 59bf
00000130: 00d3 6a3c 9c10 7f3e a5f5 96be 3828 3bbf
00000140: 3d78 73be 38f4 933e d495 fe3e 7c43 693f
00000150: 25fd e43e d4fe 4c3f c986 7e3f ec4c 86be
00000160: 7b61 9bbf 8246 69bf 552a 36be e195 343e
00000170: 353a 03c0 8a97 393f c1c5 febe b738 d9bf
00000180: a319 513f 7b4a dabd c4a7 88bf 2505 0dc0
00000190: de0f 8c3f ccdb 603e 2f4a 9c3e db80 df3f
000001a0: 24a3 05bf 9eee 823f 12d1 953f c2bd 053f
000001b0: f1d6 543e 16d1 d63d d395 c33e 33a5 883f
000001c0: 0115 b1bf f8c7 32bf 2074 63bf eebf bbbe
000001d0: 3468 fcbf d0ea 443f d2ec 0abf 08bc 8b3f
000001e0: 8979 cdbf 50c1 b3bb 6c77 803e 1363 f4bf
000001f0: 3f9b 42bf 4f3f 90bf a822 263f 3ccb b43f
00000200: d182 023f 84e3 aebf dcc7 0f3f 434a 9ebf
00000210: eca3 b5be 4878 f83e ec7c 5fbf 1f22 543e
00000220: 687d 48bf f9b0 043f 2333 903f 6960 70be
00000230: 1b63 febe 0c9f 7c3d 263a febf 1f48 353f
00000240: 2cfb 413f 304e 3fbf d732 debe b548 b7bf
00000250: 2ba1 2cbf 78fc e23c 90d4 7f3f 77fd 2e3f
00000260: a9a6 e6be ed7e 053f 1694 85be f853 88be
00000270: 0473 76be 0a8d 63be dfcd 7d3f 8517 d33f
00000280: d914 f43e a07b 423d d1d1 a03f 12a0 ee3e
00000290: c8c1 cdbf d99c 87bf 3bf0 c3be 7022 06bf
000002a0: ca5c f6be e04d 0dbe ce53 4cbf 5bc6 553f
000002b0: e872 30be a3a8 af3f 5455 d1bf 40b7 3a3f
000002c0: 84f9 633d 2687 5d3f eddb 823f 4ecd 7d3f
000002d0: e72d 813f ce4b 483f 2014 623d dd01 8fbf
000002e0: 7503 94be 4064 e23f 566c 37bf b471 143d
000002f0: c68f 66bf 4e58 433d 7e72 513e 20e7 42bc
00000300: 2894 6abf 8bed 10bf e230 c23f 4642 e1bd
00000310: e58a c73f d27a 433e 89a9 343f e4b3 02bc
00000320: c6ba b0be 71e0 483f 6194 86bf 4b26 1a3f
00000330: ed5d cbbf d95e 113f 1996 bebf aa10 8bbe
00000340: 462d f13c 0190 e33e 1c1c 2f3f 0d27 eabf
00000350: 7d18 a73f ee00 913f 4843 40bc 07b9 cfbe
00000360: ef67 1140 f4ed dabe 93ce b13f 3cc5 a1be
00000370: 86e7 babe cd41 f6be 0f40 b13f 7057 a13f
00000380: 80d9 15c0 37b4 77bf 0bf4 00bd 2873 d23e
00000390: 1e35 09be cf43 0cbf 6e16 523f 7b23 0cc0
000003a0: 6280 c03f 3f42 9c3f 0024 663f bd5c 7c3f
000003b0: 7920 38be 1c54 44bf 6aa7 e5bf 1b9b 87bf
000003c0: a9f2 8cbf 24c7 1a40 d1ce 46bf 6812 bfbe
000003d0: 2039 64be e4f9 27bd ce6a 96be 9938 19bf
000003e0: 9b46 b6bf da1d 2fbf fab6 56bd 9d0a b43f
000003f0: e1b3 44c0 34c8 acbe ae64 b6be 18ba 51bf
-1.3861797 -0.6025946 2.657483 -1.969997 1.8358406 -1.5000491 -3.5582352 -0.56221205
2.1463149 0.3139507 1.3725098 0.72064584 6.4071574 4.5961566 -3.0556066 2.6706705
1.0246795 -1.7471893 -0.69785815 -5.7840915 -6.5794897 -2.1278763 1.8747965 0.5967255
-0.52614385 1.2450558 -1.9504786 0.035003964 -0.7992734 2.2265167 1.2213414 -1.4332982
-0.6980857 5.6006026 6.7641 -0.61442643 0.76613563 -2.2848823 -0.9966656 -0.96486145
-4.4101877 0.720621 -0.29372022 2.868931 1.0098945 1.8259926 0.70644355 -4.026534
-4.767388 2.1678798 -0.039236024 1.717356 -1.3493503 1.6077119 0.2817011 -3.7290716
1.6539497 -0.9492054 0.13755718 0.93661094 -0.33135778 -0.09145061 -0.072220206 -0.4790191
1.908657 -1.7509972 1.9866986 1.8049617 -0.91209096 1.3521534 -0.5378085 -1.6787275
-0.9234793 -0.32296532 1.0766815 -0.8515314 0.014332533 0.2490868 -0.29484287 -0.73108244
-0.23776336 0.28897262 0.49723685 0.911186 0.44724384 0.80076337 0.99424416 -0.26230562
-1.2139124 -0.9112321 -0.17789586 0.176353 -2.0504277 0.72496855 -0.4976025 -1.6970433
0.81679744 -0.10658737 -1.0676198 -2.203439 1.0942342 0.21958846 0.30525348 1.7461199
-0.5220206 1.022907 1.1704428 0.5224267 0.20785119 0.10489099 0.38200244 1.0675415
-1.3834535 -0.6983638 -0.8884907 -0.36669868 -1.97193 0.76920795 -0.5426761 1.0916758
-1.6052715 -0.005485691 0.25091112 -1.9092735 -0.76018137 -1.126932 0.6489663 1.4124522
0.5098086 -1.3663182 0.56164336 -1.2366413 -0.35476625 0.48529267 -0.8729999 0.20716141
-0.78316355 0.5183254 1.1265606 -0.23474278 -0.49684986 0.061675116 -1.9861495 0.70813173
0.7577388 -0.7472868 -0.43398163 -1.4319063 -0.6743342 0.027708277 0.9993372 0.68355507
-0.45049027 0.521468 -0.26089543 -0.26626563 -0.24067312 -0.22221771 0.9914226 1.6491553
0.47672155 0.04748118 1.2564031 0.466065 -1.6074762 -1.0594741 -0.3826922 -0.523963
-0.48117667 -0.13799238 -0.79815376 0.8350579 -0.17231333 1.3723339 -1.6354165 0.7293587
0.05565788 0.86534345 1.0223366 0.99141395 1.0092133 0.7824067 0.055194974 -1.1172444
-0.28908888 1.7686844 -0.7164968 0.03624125 -0.9006313 0.047691636 0.20453832 -0.011895925
-0.9163232 -0.5661246 1.5171168 -0.10998969 1.5589262 0.19089821 0.7057119 -0.00797746
-0.34517497 0.7846747 -1.0514032 0.6021468 -1.5888039 0.5678535 -1.4889556 -0.2716115
0.029440533 0.44445804 0.68402267 -1.8293167 1.3054348 1.1328409 -0.011734791 -0.40570852
2.2719686 -0.4275967 1.3891166 -0.3159579 -0.36504763 -0.48097077 1.3847674 1.2604809
-2.3414001 -0.9675936 -0.031482738 0.41103482 -0.13399169 -0.5479097 0.82065475 -2.1896656
1.5039179 1.2207717 0.8989868 0.9857901 -0.17981137 -0.7669084 -1.7941716 -1.059421
-1.1011554 2.4184046 -0.77659327 -0.3731873 -0.22287416 -0.0410098 -0.2937836 -0.59851986
-1.4240297 -0.68404925 -0.052420594 1.4065739 -3.073479 -0.33746493 -0.35623688 -0.8192458
