best_brain.pt (torch, 31677 bytes, 2 tensors)

w1 f4 [24, 240]
00000000: f7a6 723e e0ed 8740 67d5 7b40 3b11 a73e
00000010: cd7d ca3f 20a6 213f 2472 803f a908 3cbf
00000020: 72d1 7ebf 3ea8 833f 9d74 933f 6b23 3140
00000030: 3d6a 8a3e 5635 ed3f e77f b33f e84c 5040
00000040: 15cf 95be 5740 27be 0007 cc3f 574a 0440
00000050: 2d2f 58bf a543 25bf 044c 033d be52 003f
00000060: 0c43 5540 d04c c2bf f8e0 b1bc cd71 493f
00000070: bc84 9dbf 44ed d43d fddd 4840 f438 e53e
00000080: b8cb adbe 5aea 66bf ac1b 1740 40a1 6ebd
00000090: 78ec 45bf 2a21 83be c811 913e def0 653e
000000a0: bc77 693f 620f 3b3f 8902 983f e4ad 9fbf
000000b0: 56ab 6740 6b76 0f3e 3633 683f eef1 8d3f
000000c0: 0a16 b1bf 2600 0740 5273 a8bf 78de df3f
000000d0: 7ec7 b1be f45c 3b3e 25a4 683f ec90 e8be
000000e0: 52a4 a8bd 8474 743d 4566 09c0 470f e43e
000000f0: de76 8dbf 206e 0ebb 54d8 3c3e 8ad6 3bc0
00000100: 9c34 c53e de52 8e3f 34bb 373e 546f 2dc0
00000110: 2459 54bf 2709 473f 8dc2 02c0 5524 a73f
00000120: effe 043f ca7c 0640 9a68 d53f 7c1e 87bf
00000130: ddb1 f43f e247 4240 4b36 03c0 aed4 b93f
00000140: 4974 09c0 f7cc 8c3f 206a 073b 6d3c 1f3f
00000150: 8518 5d3f dde7 5640 074d 24c0 4595 98bf
00000160: da1b cbbe 9ef7 cabf f1be 1140 48e6 87bc
00000170: 94a8 f83d 584a 9fbf 70b6 093f cefd 5940
00000180: ff10 24bf 5e92 9f3f 1ef3 0640 16f3 173f
00000190: 9931 563f 6793 1bc0 260e d1bf e460 c0bd
000001a0: c3b8 1640 f392 a4bf 216e 033f c183 cc3d
000001b0: 8962 3ac0 ee81 81be 88de 283d 2c9b 7bc0
000001c0: 9705 a1bf 5885 3e3f 3c49 3340 be64 1b3f
000001d0: 7d4b 5b3f b78e a83f b130 693e 58ec e13e
000001e0: 560b 6ebf d6ce 0740 3141 c0bf d368 ed3f
000001f0: 0796 ae3f 6237 ddbe b57e 553f 3c67 c2bf
00000200: 59f3 303f bef2 c1bf 858b 0840 3515 b2bf
00000210: c824 d93e 042f 4140 0b65 a5bf 9fc1 b33f
00000220: 0d2d 92bf 69e0 a93e d22f 95bf e43b b0be
00000230: 86d9 36c0 6a88 aebf 30c5 d8bf 503d b13f
00000240: bc6c 0bbf dfb4 80bf 776a 6ebf 7f84 95bf
00000250: 3f6b 8e3f 3582 5f40 0671 d43e a655 4a40
00000260: 0099 883e 6418 a43e 8ffa 283e 2365 2cc0
00000270: 9f7c 1ebf 7117 7a3f da03 98bd c147 863f
00000280: 3c2e 203f 0094 bc3b dde7 453e 9c8d 783f
00000290: d2b0 5a40 685e b6bf 614c 2340 27f4 ffbf
000002a0: 2416 f9bf 4853 ae3f e068 ff3d d3d4 5f3f
000002b0: dd1a 9d3f 95b5 83bf 5b5b 803f 9f51 37bf
000002c0: e828 803e f3d4 7c3f 4004 8cbf 60de ad3f
000002d0: 444c 89bf a167 48bf 2a31 323e 89f2 3e3f
000002e0: d176 0ac0 9e7f 5840 0a97 7bbe cf84 633f
000002f0: 8857 b33f 7f74 89bf 1f4d 1ec0 ef0a 903f
00000300: c674 99bf 485a a23f aec2 753f a27e 80be
00000310: 6e99 37bf 0986 77bf a159 3e3e a621 85bf
00000320: 5efd 13c0 6459 f03f 91bd e43f 2316 9e3e
00000330: b22f e3be 340b 81bf 3748 4d3e 1a3f 94be
00000340: f86a 4cbf 9caa b8bf c58c d2be b8d8 0c3e
00000350: f46e dd3f e1b2 d73f 9533 d2be 0b76 aa3e
00000360: 3a32 c2be 73f4 2040 6b1a 1f3f 0270 40be
00000370: 7ab6 9ebf 54f9 dcbf 1c76 f73f 9a2c 3e3f
00000380: a7de 95bf aec8 893f 0d8c ac3f bc4f 603d
00000390: 8583 f43f 2331 6bbe 06ba 21bf 10c4 b03c
000003a0: 03ed 2abf 1a1c 0ebd a1c2 0d40 8760 363f
000003b0: 8add 313f c864 0d40 9d63 5f40 6244 8d3f
000003c0: e9ed b13f 03e3 95c0 b2e6 febf 3c26 bf3e
000003d0: 724a 9f3f 3e31 823f bcc4 3b3f 22e3 203f
000003e0: 47ec d7be 6e99 25bf 6cd5 b63f 8ade 59bf
000003f0: c664 2640 2a41 02bf 166a 0c3f 1032 debf
0.23696505 4.2477875 3.9349 0.32630333 1.5819641 0.6314411 1.0034833 -0.73450714
-0.9953834 1.0285718 1.1519963 2.7677867 0.27034178 1.8531902 1.4023408 3.254694
-0.29259554 -0.16333137 1.5939636 2.0670373 -0.84446985 -0.6455634 0.032054916 0.50126255
3.3322172 -1.5179691 -0.021713719 0.7868927 -1.2306132 0.10396817 3.138549 0.44770014
-0.33944488 -0.9020134 2.361064 -0.05825925 -0.7731395 -0.2561124 0.2833388 0.22455165
0.91198325 0.7307035 1.1875774 -1.2474942 3.6198325 0.14010017 0.9070314 1.1089456
-1.3834851 2.109384 -1.3160193 1.7489767 -0.34722513 0.18297178 0.90875465 -0.45423067
-0.082344666 0.05968143 -2.146867 0.44542906 -1.10519 -0.002173312 0.18441898 -2.9349694
0.385167 1.1119039 0.17942506 -2.70992 -0.8294852 0.7774834 -2.0431244 1.3057963
0.519515 2.1013665 1.6672547 -1.0556178 1.911678 3.0356374 -2.0501888 1.451803
-2.1477225 1.100005 0.002066262 0.6220158 0.8636554 3.3579018 -2.5672014 -1.1920553
-0.39669687 -1.5856817 2.2772791 -0.016589299 0.12141529 -1.2444563 0.53794 3.406116
-0.64088434 1.2466543 2.1085887 0.59355295 0.8366943 -2.4308717 -1.6332443 -0.093934804
2.355027 -1.2857345 0.5133992 0.099860676 -2.912264 -0.2529444 0.041227847 -3.931346
-1.2579831 0.74422216 2.8013449 0.60700595 0.8566206 1.3168553 0.2277248 0.44125628
-0.9298605 2.1219993 -1.5019895 1.8547615 1.3639535 -0.43206316 0.83396465 -1.5187755
0.6912132 -1.5152204 2.1335156 -1.3912722 0.42410874 3.0184946 -1.2921461 1.4043463
-1.1419998 0.33179024 -1.1655219 -0.34420693 -2.8570266 -1.363538 -1.6935177 1.3846836
-0.5446279 -1.0055197 -0.931312 -1.168106 1.1126479 3.4923222 0.4149248 3.1614776
0.2667923 0.3204986 0.1650183 -2.693673 -0.61908907 0.9769202 -0.074226096 1.0490648
0.6257055 0.0057549477 0.1932673 0.9709108 3.4170423 -1.424756 2.5515368 -1.9996384
-1.9459882 1.3619165 0.12471175 0.8743412 1.2273823 -1.028979 1.002788 -0.7160892
0.2503121 0.98762435 -1.0938797 1.3583488 -1.07264 -0.78283125 0.17401567 0.7458883
-2.163502 3.3827891 -0.24569336 0.88874525 1.4011087 -1.0738677 -2.473457 1.1253337
-1.1988761 1.2683802 0.9600018 -0.25096613 -0.7171849 -0.96688896 0.18588878 -1.0400894
-2.3123393 1.877728 1.7870351 0.30876264 -0.44372326 -1.0081544 0.20047079 -0.28954393
-0.7985072 -1.4427066 -0.41123024 0.13754547 1.7299485 1.6851465 -0.4105498 0.33293185
-0.37928945 2.51492 0.62149686 -0.18792728 -1.2399437 -1.7263589 1.9332919 0.74286807
-1.1708573 1.0764368 1.348024 0.05476354 1.9102637 -0.22967963 -0.63174474 0.021577865
-0.667679 -0.03469477 2.2150042 0.7124104 0.69478667 2.2092762 3.490455 1.1036494
1.390073 -4.6839614 -1.9914153 0.37333858 1.2444594 1.0171278 0.7334707 0.6284658
-0.42172453 -0.6468724 1.4283881 -0.8510519 2.5999007 -0.5088068 0.54849374 -1.7359028

w2 f4 [240, 7]
00000000: 933d 05c0 e248 0cc0 b63b 8ec0 d193 8e3f
00000010: 7a70 afbf 9c80 f740 774a d640 1669 0bbf
00000020: 0c5e f3bf df6c a5be 329e d63f fc05 7dbf
00000030: ebc8 0041 4520 dc40 1ecc 36bf 266a 4c40
00000040: 9db9 593f a3fe 5e40 2cdf 87bf 328d cd40
00000050: adf8 1a41 10a7 3fbf 3d5f ab3f b61d 403f
00000060: fb7c a8bf 1abd 4dc0 caf7 ec40 ec55 ad40
00000070: ce88 46c0 d506 f83f f1e1 bebe 85a5 1040
00000080: 7656 0e40 bac9 5740 cb2f 6240 f75c 94bf
00000090: 8360 87bd 05e8 fa3f 9e01 f43f 7a31 81bf
000000a0: e6d3 71c0 8114 64c0 edee c53e 491b 90bf
000000b0: 793d 523f 6cac 5e3e fc9b aa3d aa7a 9140
000000c0: 3a9a 3940 0c6a a23e be36 2b3d 5cb7 f4be
000000d0: 131e 7ebf a82e ec3c 583e 5640 d219 1740
000000e0: 09d3 16bf 296b 8f3f 8046 5dbe fc18 42bf
000000f0: 8e36 0040 f164 89bf 5875 d13e ac6e 543e
00000100: 6529 963f 1a29 d93e 080c 67bf 36d2 1c3e
00000110: b518 55bf dc30 d23f ba96 94bf 2934 1140
00000120: 4dda 07c0 aa9b 21be 8147 53bf c663 b4be
00000130: 0bf8 63bf 1c1b 8c3f e8ff 163f 011c debe
00000140: 19df 40be 6720 93be 6041 5d3e d83c 523c
00000150: 0e80 213f 2318 f1bf 1678 0bc0 bfaf e63f
00000160: 60ca dc3e 63fd 17bf d407 22bf 5619 9dbf
00000170: 7054 013d 4cbf 523f 4bc0 c1bf d8fc 11bf
00000180: 83d8 75bf fc86 2dbe b410 763e 018e 30bf
00000190: 5de8 533f f50c 4bc0 be69 1dc0 6e3b af3f
000001a0: 4537 c1bf 177c 9e3f 1727 123f 5166 26c0
000001b0: 272c 5040 3539 453f f06e 9bbf b5b0 ec3f
000001c0: 0797 f1be 4bbd ca3f 5c4f 2cbf cd7d 103f
000001d0: 1d77 95be b366 10c0 88c9 543f 6da6 7f3f
000001e0: 6fe2 7bbf b860 18bf 5b2e b2bf 8590 fabf
000001f0: b2d7 55be 297f f03e 9877 8c3f 4d33 79bf
00000200: 8252 2c3f 9fa1 06bd 0283 eabf 953b adbe
00000210: 1d78 533f bf35 1dbf ecb2 dcbf e7b6 4cc0
00000220: 578a 1fbf fca7 83bf ae1a 9fbf 097f 5cbf
00000230: 1c48 a23f efb7 75be 2f30 bb3f 51a8 18bf
00000240: a980 c5be 36fd 62bf f959 afbe e435 2e3f
00000250: 2da3 89bd 0e09 fcbf 2164 203f 5804 4f3f
00000260: d4a0 973f 328b 57bd 3e20 cdbf 0295 99bf
00000270: e673 10bf 7c06 0bc0 c8c8 603e 3ef2 9a3e
00000280: 8cef e6bf 04bf 0ac0 2e6c 093e e752 4bc0
00000290: 3e77 1640 f2e9 57bf 66b4 84bf a703 a13f
000002a0: 046c f33e c831 c5bf c429 96bf 98ef 523f
000002b0: 80f3 fa3a e765 e13f a4e1 453e b8ae dabd
000002c0: d022 83bf d69e 913e e189 1ebf b523 81be
000002d0: a085 3c3e 089c 91bf d4e8 bf3e e6f4 1240
000002e0: 22f3 e3bf e061 fe3f a81a 2c3e fa07 59be
000002f0: 276f 2a40 8359 b83e 6307 2dbf beca 00bf
00000300: 90bb 1c3f 9c23 91bf c57f 55bf 4fc0 b3be
00000310: bd30 2240 d304 f5bf 7b82 f8be 77f8 1e40
00000320: d043 91bf 8d3e 37c0 c410 483f c7c8 3a3e
00000330: 0947 3f3f 504e a2bc ef88 b03e 20d9 bcbf
00000340: 6ce7 1e40 b886 013f 95b8 8d3f d1f3 1040
00000350: c65e 06c0 7769 a0bf a537 00be 6a9e eabf
00000360: 3bbc 8e3e ce64 753f 5f55 a53f 9a57 07be
00000370: d448 0abf 7042 7f3e 1b3e 08c0 210f e5be
00000380: e022 8a3e edd5 9d3f f71b 74bf a34c ba3f
00000390: 3a92 143f 289c fc3f 725b 863f aa1d c13e
000003a0: 934c 0e3f c592 2ebe b08f 4940 7cd7 13bf
000003b0: 6057 cb3e 684b f63e 6163 5c40 d4a8 d83f
000003c0: 79c1 67bf d072 bb3c a452 c4be ee6f 903f
000003d0: 72ba e8bf 20ae debf 9e70 41bf 3b6b 7bbf
000003e0: 446e 4ac0 24e1 febf 1319 16bf e049 cb3f
000003f0: 3b6d 2140 4cc7 293f ca57 93be 28e7 c3be
-2.0818832 -2.1919484 -4.444789 1.113886 -1.37062 7.7344494 6.69659 -0.54457223
-1.9013076 -0.32309625 1.6767027 -0.98837256 8.049052 6.878939 -0.7140521 3.1939788
0.8504885 3.4842918 -1.0614982 6.4234858 9.685712 -0.7486429 1.338844 0.75045335
-1.3163141 -3.2146668 7.4052477 5.4167385 -3.1021 1.9377085 -0.37281755 2.2601025
2.2240272 3.3716874 3.534167 -1.1590871 -0.06610205 1.9602057 1.9062994 -1.0093224
-3.7785583 -3.5637515 0.38658848 -1.1258327 0.8212505 0.21745461 0.08330533 4.5462236
2.9000382 0.31721532 0.041800253 -0.47796142 -0.9926464 0.028830841 3.3475552 2.360951
-0.58915764 1.1204578 -0.21608925 -0.75819373 2.0033298 -1.073393 0.4090984 0.20745343
1.1731383 0.4241417 -0.90252733 0.15314564 -0.83240825 1.6421161 -1.1608498 2.2688086
-2.122699 -0.15782037 -0.8253098 -0.3523237 -0.8905036 1.0945773 0.5898423 -0.4338074
-0.18835105 -0.2873566 0.2160697 0.012831889 0.6308602 -1.8835491 -2.1792045 1.8022383
0.4312315 -0.5937101 -0.63293195 -1.2273357 0.031574667 0.82323146 -1.5136808 -0.57026434
-0.96033496 -0.16946024 0.24029809 -0.6896668 0.82776433 -3.1726658 -2.459579 1.3690012
-1.5094992 1.2381619 0.57090896 -2.599995 3.2526948 0.77040416 -1.214323 1.8491427
-0.47185537 1.5839018 -0.6730859 0.56441957 -0.2919244 -2.2562683 0.8312001 0.9986332
-0.98392385 -0.5952258 -1.3920397 -1.9575354 -0.20883062 0.46972016 1.0973997 -0.97343904
0.67313397 -0.032868978 -1.832123 -0.3383452 0.82605153 -0.61410135 -1.7242103 -3.1986635
-0.62320465 -1.028564 -1.2430017 -0.8613134 1.2678256 -0.23995946 1.462408 -0.5963183
-0.38574722 -0.8866762 -0.3424833 0.6805098 -0.067205764 -1.9690263 0.62652785 0.80866003
1.1845956 -0.05262298 -1.6025465 -1.1998599 -0.56426847 -2.1722708 0.21951592 0.3026294
-1.8041854 -2.1679087 0.13420174 -3.176935 2.351028 -0.8434135 -1.0367553 1.257924
0.47543347 -1.5405817 -1.1731496 0.8239684 0.0019146055 1.7609223 0.19324356 -0.10677856
-1.0244999 0.28441495 -0.61929137 -0.25222555 0.18410349 -1.1375742 0.3748232 2.2961974
-1.7808573 1.9873619 0.16807044 -0.21194449 2.6630342 0.36005792 -0.67589396 -0.5030936
0.612237 -1.1338992 -0.83398086 -0.35107657 2.5342247 -1.9142097 -0.4853705 2.483915
-1.134882 -2.8631928 0.7815058 0.18240653 0.74717766 -0.019812733 0.34479472 -1.4753761
2.4828749 0.5059619 1.1071955 2.2648814 -2.0995345 -1.2532185 -0.12521227 -1.8329594
0.27877983 0.9585694 1.2916678 -0.13217011 -0.54017377 0.24927688 -2.1287906 -0.44738105
0.26979733 1.233091 -0.9535517 1.4554638 0.58035624 1.9735155 1.0496657 0.37717944
0.55585593 -0.17048176 3.149395 -0.5775068 0.397151 0.48104405 3.4435656 1.6926522
-0.9052959 0.022881895 -0.383443 1.1284158 -1.8181899 -1.7396889 -0.75562465 -0.98210496
-3.16298 -1.9912457 -0.5863201 1.588192 2.522292 0.6631973 -0.28777915 -0.38262296
