best_brain.pt (torch, 2749 bytes, 2 tensors)

w1 f4 [20, 8]
00000000: b93a 2cc0 7d95 2d3f cca8 e0bf dd24 193f
00000010: 519c 0abf cafd 203f 837d d0bf 6cb6 ab3f
00000020: a190 c53e 28f0 e33f 1c46 063e d986 ad3e
00000030: 0dc0 2b3f c1ea 5dbf 1450 23c0 a650 23c0
00000040: bd04 0bbf 891a 8ebf 2105 473f b593 a73e
00000050: 8648 dbbd b599 ca3f 0452 05c0 578b e43f
00000060: 8231 febd f793 b53e 9787 a03f c455 ef3f
00000070: b4d4 043f ce75 8f3d 9e81 e4bf 4044 583b
00000080: b431 763f 83e1 393e 28ac 07bf 0632 2f3f
00000090: 6541 4a3e 5a1d e13f b278 1840 d0c9 4440
000000a0: da41 9d3f d508 22c0 d2cc a2bf 4663 10c0
000000b0: 630c 6fbd 67eb 82bf 0e73 c43f a064 5640
000000c0: da42 0c40 4b71 acbe 514a 78bf 7ffb 353f
000000d0: 171d 423e c6bd 403e 192e 65c0 1b6c 1ec0
000000e0: 12a9 473f 7ab0 423f 05a8 54bf ce1e 98bf
000000f0: 2b98 603f ad78 353f 46c8 533d 55db 2b40
00000100: 9d3e 8f3e d94d 1340 44d5 05bf b2c7 2ebf
00000110: 4d48 d73d 925d 4e3e b3be b83e 9a11 1d3d
00000120: 0b1b 1340 5fc9 d6be b09d 85bf 3987 b53f
00000130: 26de 473e f7b8 313f e8c3 fa3d 9d03 adbe
00000140: 208e 41c0 0211 12bf 99cd 6ebe 098f 0640
00000150: 6a85 10bf f34d d83f 9c3b 1ac0 a185 68c0
00000160: 8be2 243f 1001 773f bc8e 25c0 b1fb cbbe
00000170: d4a2 a340 9e64 3ac0 dc0d 11c0 430a 823f
00000180: 5dc9 89be 4e45 14bf 01a8 cdbf 19af fe3f
00000190: a979 49bf a348 84bf a872 123e 8b6e c0bf
000001a0: 02ee bf3f 0316 373f b8d6 343f f402 8cbe
000001b0: 85c1 e7bd 8fd5 14bf de43 dfbe 7699 4f3d
000001c0: a973 0f3f d687 3940 0cb8 01c0 55e8 9abf
000001d0: 3b14 58bf 566f ba3e 12c8 f33f 0dd0 43bf
000001e0: a06c f6bf 3c0f 1340 71fc 85bc f74a 41be
000001f0: f598 893f c317 a6bf bf20 b23e 678b e5bf
00000200: 2655 9b3d 1030 eebf 0694 ed3f 51fe 7dbf
00000210: 129a bbbf f3cb 9c3f 4d83 8b3f 4840 8fbf
00000220: 8f68 1a40 795d 83bf 5e89 e33f 824a ecbe
00000230: fffa 4cc0 4fb2 d03f 7b27 0fc0 418e d63e
00000240: 49fe d53f 0705 8d3f 34f3 3abf b006 643f
00000250: 38c4 b3bf 018f 1c3f 9f22 a1bf fa8b 52c0
00000260: 63a5 943e b82d 7fbf 6bd6 4140 de80 f7bf
00000270: b69c 4ebf a83b 79bf 4060 03bf da78 63bf
-2.6910841 0.67806226 -1.7551513 0.59821874 -0.5414477 0.6288725 -1.6288303 1.3415046
0.38586906 1.7807665 0.13112682 0.33891943 0.6708992 -0.8668633 -2.5517626 -2.5517974
-0.54304105 -1.1101848 0.777422 0.3272988 -0.10707192 1.5828158 -2.0831308 1.7855023
-0.124117866 0.3546445 1.2541379 1.8698049 0.5188706 0.07004891 -1.7852056 0.0032999665
0.9616959 0.18152432 -0.52997065 0.68435705 0.19751509 1.7587082 2.3823667 3.0748177
1.2285721 -2.531789 -1.2718756 -2.2560592 -0.058361422 -1.0228089 1.5347612 3.3498917
2.1915803 -0.33680186 -0.969884 0.7108688 0.1895641 0.18822393 -3.5809386 -2.4753482
0.77992356 0.7605053 -0.8306888 -1.1884401 0.8773219 0.7088726 0.051704668 2.685262
0.27977458 2.3016264 -0.5227854 -0.6827346 0.10511837 0.20152882 0.36082992 0.038346864
2.2985256 -0.4195051 -1.0438747 1.4181892 0.19518337 0.6942286 0.122443974 -0.3379182
-3.0242996 -0.570572 -0.23320617 2.1024802 -0.56453574 1.6898788 -2.4098883 -3.633156
0.6440818 0.96485996 -2.5868368 -0.39840463 5.1136265 -2.9123912 -2.266471 1.0159382
-0.2691144 -0.5791825 -1.6066896 1.9897186 -0.78701264 -1.0334667 0.1430155 -1.5033735
1.4994509 0.7151796 0.70640135 -0.27346003 -0.11316208 -0.58138365 -0.43606466 0.05068346
0.5603586 2.8989158 -2.0268583 -1.2102152 -0.8440587 0.36413068 1.9045432 -0.76489335
-1.92519 2.2978048 -0.016355725 -0.18876253 1.0749804 -1.2976002 0.34790608 -1.7933167
0.075846 -1.8608418 1.8560798 -0.9921618 -1.4656394 1.224974 1.0899445 -1.1191492
2.4126318 -1.02629 1.7776296 -0.46150595 -3.2028196 1.6304415 -2.2367847 0.41905406
1.6718227 1.1017159 -0.7302735 0.89072704 -1.4044256 0.61155707 -1.258869 -3.2897935
0.2903243 -0.99679136 3.028712 -1.9336202 -0.8070787 -0.97356653 -0.5131874 -0.8885628

w2 f4 [8, 7]
00000000: 4350 09c0 ed7d 513e a56b c43f 7729 88bf
00000010: accc cfbe a969 bd3e 94dd 2bc0 402f a2be
00000020: 8370 cb3f 6aa5 b43f 77e0 df3f 4945 243f
00000030: df26 7440 bd1e 7d40 2902 b3bf 45da fe3f
00000040: 274a df3e db3f 9cbf a4ef 1bbf 8653 5cc0
00000050: c82b 7bc0 8cb8 bbbf 0b18 ab3f 63fc 9d3f
00000060: f829 293f a67e 613e beda 3dc0 61a8 13c0
00000070: ddbe 46bf 07ca a73f dfd6 b33f 2983 9abf
00000080: 73d3 8b3f 18cd 9940 47e2 af40 4852 343e
00000090: f5f7 e2be 5abc 903d b98c 08c0 e497 b0be
000000a0: ef10 8fc0 6f5d d1bf abf7 a2bf a61c 4c40
000000b0: 630e b83f 4906 6b3f d10a b73e 5110 abbf
000000c0: f86b 59c0 a1f8 013f 06d5 afbe c790 113f
000000d0: 97a8 adbf 74e4 093f 6f42 e93c 0c37 58c0
-2.1455238 0.20458193 1.534535 -1.0637654 -0.4058584 0.36994675 -2.685399 -0.31676674
1.5893711 1.411298 1.7490376 0.6416822 3.8148725 3.955001 -1.3985034 1.991036
0.4361126 -1.2206987 -0.6091254 -3.4425979 -3.9245472 -1.4665694 1.3366712 1.2342647
0.66079664 0.22020969 -2.966476 -2.307152 -0.77634984 1.3108529 1.4049948 -1.2071277
1.0923904 4.806286 5.4963717 0.17609513 -0.443298 0.07067175 -2.133589 -0.34490883
-4.470817 -1.6356639 -1.2731832 3.1892486 1.437939 0.91806465 0.3575044 -1.3364354
-3.397215 0.5077 -0.3434221 0.5686154 -1.3567075 0.53864217 0.02847406 -3.3783598
