best_brain.pt (torch, 31677 bytes, 2 tensors)

w1 f4 [24, 240]
00000000: 4fd6 5fbe 9c9c 6a3e 3044 ecbf 9432 343e
00000010: f641 9b3e 4341 b4bc e449 94be 221a ba3e
00000020: 6c29 cabf 6555 9abe 414b 0abf 50df 10bf
00000030: 1b9c f13e f15b 0d3f b406 61bf 3005 e1be
00000040: 001f cabe d16b 6cbf cbd4 863f 57c1 123f
00000050: 898b ebbd d67c d53e d86c 01bf 5ef1 33bf
00000060: 8acd 77be 2890 913f 2f7a 353f 3912 193f
00000070: 47a7 b2bd db0b 12be 9532 843f 3216 493e
00000080: 34a4 78bf 1cb7 8ebe dfa8 4dbd 2b36 9abe
00000090: 2b25 023e 4028 aabe 74cf 023f 1f0c 723e
000000a0: 1253 f43e caaf a03e 1022 62bf 3f56 6ebf
000000b0: 893d 893e c0f4 373f 1c23 ffbe 39fc 89bf
000000c0: 350d 9bbe 84d5 b8bf 0063 813e 04b3 0ebf
000000d0: 2ed3 5dbe dafd d5bd 1cd6 04bf 4fbf 5fbe
000000e0: 57ab 173f 6db8 e73e cdb5 09bf e8c5 be3e
000000f0: 7085 b03f deaa 2f3f 5085 cc3e dbf5 50bf
00000100: c16e 543e 1296 9fbf 971a 93be 4863 3f3e
00000110: 759b 623f b4d6 babf d363 943d 878f 533e
00000120: 920a 99be edf1 ca3d 2891 bdbc 277d 263e
00000130: 35be 9ebf 6f07 56bf 7d8e 79be 0c1a 2abf
00000140: 574a c4be 93fb f1be 2a9f 2e3f 369d 86bf
00000150: ea06 8c3e 9532 02be 8b7c 8bbf 200f 35be
00000160: a22b bbbf 09ef 163e 5190 d3bf a989 233e
00000170: 1aa9 873f 75db 04c0 e421 4ebe 5edf 113e
00000180: afff a13f 7d10 e73c 0f0c 00be 4580 84bf
00000190: 86fc c8bd 7dec 5b3d 3496 6c3f 5474 29bf
000001a0: 1655 71be 7bbb 293e 34c8 dd3d aac1 c73e
000001b0: 76b0 40be ffcb 26bf caca e43d 95fa 113f
000001c0: 24e4 153e 77bb 07bf f07e c23e c5fb 7abf
000001d0: 5a21 d8bd 13d9 00bf 4858 413e 9ccd 4dbf
000001e0: 53d8 2dbe 09e0 c8bf 7951 873d f8c7 4dbe
000001f0: ffa8 bd3e 7b0d a43f 690c e1be 1399 32bf
00000200: 68ce 05c0 c236 5fbe 5727 7c3d 68cb fa3c
00000210: c92d 35c0 4a78 bbbd d7c6 ee3e 8af8 68be
00000220: 3489 c0be d611 dbbe d6e7 60bf 89b8 593e
00000230: 61fd d7be ac11 96bc 428a 793f 2086 d33f
00000240: b037 623f 3883 7abc 12bb a3bf aa30 433d
00000250: 5312 93bd 56ab 08bf c2d2 c73e c5dc 2dbf
00000260: 0fb6 f7be 41d9 f93d f1a8 04c0 8768 843e
00000270: 4c4b ce3d 0f63 c3bf a0a2 5d3d 05a5 2ebd
00000280: d499 403e fe73 dabf 4911 ee3d 5f9f 9c3d
00000290: ea2d bfbd a719 c43c cda2 273f d6af 983e
000002a0: bfeb f6bc bc2d dd3e 0b37 13bf 0d62 c4be
000002b0: b350 2b3f 8d63 b63e b890 94bf 2010 983e
000002c0: 7ab6 7ebd a6e5 febe 4bbb bebd 0cba ee3f
000002d0: 1b88 dabe 8f2b 0abf 5617 59bf fd4f d8bd
000002e0: 8dea 043f e3da 283f 7706 613f 625a 713f
000002f0: 9356 7a3e 3a8b 58be 9ef8 003e 617c a2be
00000300: 832b 5b3f ceae 15be 9cf1 80be fac9 19bf
00000310: dcb5 96bf cfa0 623f bbfe bf3e 5eec 86bf
00000320: 51bf 8c3e fb8d 033f 93cf 663e 4072 debf
00000330: 1076 91bd 8d45 503c e6da eebe 1097 3ebe
00000340: 880f 21bf 67b3 3ebe 384d 24bd 4a9a 8abf
00000350: a7e0 1a3f 77ee 303f 76ae fc3d d374 173f
00000360: 71de ab3e 4957 39be e14a 9b3d 0f60 7f3e
00000370: ac75 253f 1c7e 5b3e 1c9a 853f e647 ec3e
00000380: ff32 1abf 14a2 1b3f 2007 93bf 597d f8be
00000390: 6fb3 5cbe 697d 233f 6637 7b3d afe9 a33e
000003a0: bfae 0abf 58c4 9c3e 1c84 1abf 9f0e 463f
000003b0: b78a a03e ff35 dc3e 9d82 893f f4d2 2a40
000003c0: 530d b2be 5130 12be c1d7 903f fdd8 1e3f
000003d0: 6b58 653f afac b4bf 6412 873e c247 123e
000003e0: 4e9d 58bf a563 063f f2d5 d1be 7752 983d
000003f0: 1a34 bdbf c82b 663e f210 9ebf 29dc 343d
-0.21859096 0.22911304 -1.8458309 0.17597419 0.30323762 -0.022003775 -0.28962624 0.36348063
-1.5793891 -0.30143276 -0.5402108 -0.5659075 0.47189412 0.55218416 -0.87900853 -0.4394927
-0.39476776 -0.92352015 1.0533689 0.57326263 -0.115012236 0.41696805 -0.5055671 -0.7029017
-0.241995 1.1372118 0.7088956 0.5979343 -0.08723312 -0.14262335 1.0327936 0.19637373
-0.97125554 -0.27874076 -0.050209876 -0.30119452 0.12709491 -0.33233833 0.510978 0.23637436
0.47719628 0.31384116 -0.88333225 -0.9310035 0.2680476 0.71857834 -0.49831474 -1.0780097
-0.30283514 -1.444016 0.25270844 -0.55741906 -0.2166259 -0.10448809 -0.51889205 -0.21850322
0.5924582 0.45257893 -0.5379303 0.37260365 1.3790722 0.686201 0.3994546 -0.81625146
0.20745374 -1.2467673 -0.28731224 0.18690217 0.8851846 -1.4596772 0.072456025 0.2066022
-0.29890877 0.09909425 -0.023140505 0.1625868 -1.2401797 -0.8360509 -0.24370761 -0.66445994
-0.38337967 -0.47262248 0.68211615 -1.0516727 0.27349025 -0.12714608 -1.0897382 -0.17681551
-1.4622691 0.14739622 -1.6528417 0.15970482 1.0598481 -2.0758946 -0.20130116 0.14245364
1.2656153 0.028206104 -0.125046 -1.0351645 -0.0981379 0.05369233 0.9241669 -0.6619313
-0.23567614 0.16575424 0.10829201 0.3901494 -0.18817315 -0.65155023 0.111714914 0.5702298
0.1463781 -0.53020424 0.3798747 -0.9804042 -0.10553236 -0.5033123 0.18881333 -0.8039186
-0.16977052 -1.569337 0.066073366 -0.20095813 0.37042996 1.2816614 -0.4395478 -0.6976482
-2.090723 -0.21798232 0.061560955 0.03061457 -2.8309195 -0.09153803 0.46636078 -0.2275106
-0.37604678 -0.42787045 -0.87853754 0.21261801 -0.421855 -0.018318973 0.9747659 1.6525307
0.8836622 -0.015290074 -1.2791464 0.04765383 -0.071812294 -0.5338644 0.39027983 -0.6791499
-0.48381087 0.12199641 -2.0728114 0.25860998 0.100729555 -1.5264605 0.05411017 -0.042637844
0.18808681 -1.7066648 0.11624391 0.07647585 -0.09334929 0.023938013 0.6548279 0.29821652
-0.03014171 0.43198955 -0.57505864 -0.38356057 0.6692001 0.35622826 -1.1606665 0.29699802
-0.062185742 -0.49784583 -0.09313067 1.8650527 -0.42681965 -0.53972715 -0.8480123 -0.105621316
0.51920396 0.65958995 0.8790049 0.9427854 0.24447088 -0.2114686 0.1259484 -0.3173552
0.8561327 -0.14617464 -0.25184333 -0.60073817 -1.1774249 0.88526624 0.3749903 -1.0540884
0.27489713 0.5138852 0.22540121 -1.7378616 -0.07102597 0.012711895 -0.4665138 -0.18612313
-0.62914324 -0.18623124 -0.040112704 -1.0828335 0.6049904 0.6911387 0.12337963 0.59162635
0.33568147 -0.18099703 0.075826414 0.24938987 0.6463268 0.21434826 1.0437655 0.46148604
-0.60234064 0.60794187 -1.1486549 -0.48533133 -0.21552823 0.63863236 0.06133213 0.32014224
-0.5417289 0.30618548 -0.6035783 0.7736606 0.3135583 0.43009946 1.0742985 2.6691256
-0.3477579 -0.14276244 1.1315843 0.6204985 0.8958804 -1.4115199 0.26381218 0.14285186
-0.8461503 0.52495795 -0.4098354 0.07437604 -1.4781525 0.22477639 -1.2348921 0.044155274

w2 f4 [240, 7]
00000000: ddc6 043e 8a67 4dbe 9ab8 6ebf a46f b6be
00000010: cd9b 6ebf 0160 07bd 2dab c83e 424d 99be
00000020: 0015 13be 4a18 273f d223 dfbc 9e57 7ebd
00000030: bd9d b33e 6a75 183e 56af d5bf bc24 5e3f
00000040: 1af1 b1bd 23c3 053e 9039 b43c d903 7cbf
00000050: 9c24 b3bf e21b 08be 9755 b93f e11a a03f
00000060: 039c f63e 0dfd a93f f463 91bf 320b 923e
00000070: 6c01 263e 58f9 10bf 9810 eabd cd8b 8e3a
00000080: 6284 36bf eea5 6e3f ab08 5b3f 98eb 6f3e
00000090: f2c5 81bf 4cc0 b4bf 9288 04bf a52d 5dbf
000000a0: 8afb 3abf 59c1 ea3e a9d4 c93e aaea 9dbf
000000b0: 0b9b d73e 0b30 f8bd e0b9 debf a487 94bf
000000c0: 9453 a3bf 60f4 623e 10af 4c3e 7139 573e
000000d0: 9b53 10bf 9e33 78bf bc59 b9be 5f2c 5abe
000000e0: de58 83bd a84b d8bf e53a e0be 00d1 a0bd
000000f0: eee6 d23f b1b0 a0bf c780 203f a9a4 f13e
00000100: 993f f63e afd2 5d3f fd82 cdbe 6a3b 94be
00000110: 4cb2 66be 7433 133f f1bf 743e de54 9a3d
00000120: 9106 f13d 25b8 9b3e 6d41 7b3e af5d 5e3e
00000130: 23ec 673f 0ad9 09bf ea42 5dbf 142d 033e
00000140: 4a7b 3f3d 24f1 0cbe 0c62 87bf a834 02bf
00000150: 1f3e 11be afc1 153e 0e2f d93e 11bb eebe
00000160: f9ac 943e 9c7a 32be cd05 08bf a59b 0dbf
00000170: 344b c7be 32a7 9fbe 8ad6 94be 895a 66be
00000180: 0ef9 3a3e 6053 733f cc02 fb3f 5f3d 2bbe
00000190: bb43 a2bf f08f 283f c0ab aabf 43ab 353e
000001a0: 67c7 503f ba63 f73e 0491 b13e 0526 013e
000001b0: cc06 1c3e bec8 b9be e4b9 7fbf 7639 6f3f
000001c0: 7f99 fbbd d844 91bf 4b7d 03be 243b 92be
000001d0: efdf 4fbe aae8 debd 277d 07bf 712f 3d3d
000001e0: a70c a3be 226b 543f 3c4e c8be 85ae 9dbc
000001f0: 470a 9b3e 9d41 433f 12ff 87be d755 043f
00000200: 9e92 873e e251 813f 9e70 ca3e 67dc 03be
00000210: b87e 5ebe e9b7 0e3f fb96 023e e8a9 543f
00000220: a7e6 213f aa05 44bb 6569 c53e 9ea6 ca3e
00000230: 3513 0abf 0ea7 40bf 2787 313d 633e 01bf
00000240: 6a0c 2ebe 0bed d6bb 5858 003d e8ce 86bf
00000250: dd0f 823e 1b7c 42bc dc54 1bbf 40b6 88be
00000260: 04bc 52bd 08f3 303d 9add a03d 1856 193f
00000270: 8fed 26bf 6338 b93e 805d 043f 4322 253f
00000280: 85a3 1140 020f a93e 5e07 11bf f844 873e
00000290: 95ea ef3e 5be3 8d3d 8e08 25be 8b62 bbbe
000002a0: cdac 2b40 753f fe3f 1ecc 1040 a156 8a3f
000002b0: 679d 0fbf 6323 26bf b236 78be a2a8 0abe
000002c0: 55ed d6bd a2b8 a73e a455 c53d 001d 82bf
000002d0: 7767 f33e 940a 39bf d565 ba3e 462d ecbf
000002e0: ede9 d3bf 6b29 aebf f1e0 063f 770a 583e
000002f0: 5844 473f 7250 5b3f 578a 023f dce2 69bd
00000300: e64b 613f fe98 09be 3e6a 8dbe af62 94bf
00000310: f69b f8be 2c16 0cbe 1241 28bf db53 203e
00000320: b7a4 233f 4518 20bf 438a a4be 5780 b33d
00000330: 944b 90be ef43 243f c369 88be aec5 9abf
00000340: 1788 4ebe ff34 c73d 9c32 a23c e8c8 56bf
00000350: 3095 803e 84c0 e9bc 0685 fe3f 7ec6 e3bf
00000360: 426d 3e3f fc93 53bf 543e a8bd a410 cabe
00000370: 0773 97bd f316 133f 21bf cb3e c558 ad3e
00000380: a608 d7bf 68a5 83bf d604 02c0 7eb7 f9bf
00000390: cf73 0a3f 429e 123e 7051 a13e d47b fa3e
000003a0: 073f 21bf 87ca a6bd ed19 563c bf98 383e
000003b0: abf3 77be a440 873e 31c8 e03e ada5 fc3e
000003c0: 5adc 0abe 00ee 4fbf fda9 0d3f a99d b13d
000003d0: b9a7 52bf 7756 40be 5b98 fabc 05cd fbbe
000003e0: 9b93 893f c7ad 08bf 3263 75bd 7616 edbe
000003f0: 05bb 80be 9345 0d3e dad9 e13e de56 17bf
0.12966485 -0.20059028 -0.9325043 -0.3563205 -0.93206483 -0.03305054 0.39193097 -0.29941756
-0.1436348 0.6527144 -0.02723876 -0.062095277 0.35081282 0.1488854 -1.6694133 0.867748
-0.086885646 0.1306272 0.022000104 -0.9844337 -1.3995547 -0.13291886 1.4479245 1.2508203
0.48165902 1.328035 -1.1358628 0.28524166 0.1621148 -0.5663047 -0.11428946 0.0010875404
-0.7129575 0.9322194 0.855601 0.23429716 -1.0138533 -1.4121184 -0.5177089 -0.86397773
-0.7304007 0.45850638 0.3942006 -1.2337239 0.42110476 -0.121185385 -1.7400475 -1.1603894
-1.2759881 0.22163534 0.19988656 0.21018006 -0.5637757 -0.9695376 -0.36201274 -0.21305989
-0.064134344 -1.6898088 -0.43794933 -0.078523636 1.6476724 -1.2553922 0.626965 0.47195938
0.48095396 0.866496 -0.40139 -0.2895158 -0.22528952 0.57500386 0.23901345 0.075357184
0.117688306 0.3041393 0.24536677 0.21715425 0.9059469 -0.538468 -0.8643023 0.12810165
0.046748437 -0.13763863 -1.0576797 -0.508616 -0.14183854 0.14624666 0.42418712 -0.46627095
0.29038218 -0.17429584 -0.5313385 -0.5531562 -0.38924563 -0.31182247 -0.2906993 -0.22495474
0.1825907 0.95049095 1.9610229 -0.1672263 -1.267692 0.6584463 -1.3333664 0.17741112
0.81554264 0.48318273 0.3468095 0.1261216 0.15236968 -0.36285967 -0.9989302 0.93447053
-0.122851364 -1.1349134 -0.12840764 -0.28560746 -0.20300268 -0.10884221 -0.5292534 0.04618782
-0.3184559 0.8297597 -0.39122188 -0.019248256 0.30281278 0.7627199 -0.2656179 0.5169348
0.26479048 1.0103114 0.39539045 -0.12877046 -0.21728027 0.55749375 0.12752907 0.83071756
0.6324257 -0.0029910603 0.38556972 0.39580244 -0.5393556 -0.75254905 0.043341782 -0.5048582
-0.16996923 -0.0065590194 0.03133425 -1.0531893 0.25402728 -0.011870409 -0.6067636 -0.26701546
-0.051448837 0.043200523 0.07854767 0.59896994 -0.65206236 0.36175832 0.5170517 0.64505404
2.2756054 0.33019263 -0.56651866 0.26419806 0.4685866 0.0692813 -0.16116545 -0.3659862
2.682422 1.9863116 2.2624583 1.0807687 -0.5609955 -0.64897746 -0.24239615 -0.13540891
-0.10494486 0.3275805 0.09635475 -1.01651 0.47539875 -0.72281766 0.36405817 -1.8451316
-1.6555763 -1.360639 0.52686983 0.21097742 0.7783866 0.85669625 0.5099234 -0.057101116
0.88006437 -0.13437268 -0.2762012 -1.1592616 -0.4855649 -0.13680333 -0.6572429 0.15656988
0.6392321 -0.6253703 -0.32136735 0.08764713 -0.28182662 0.6416616 -0.2664319 -1.2091577
-0.20169102 0.09726905 0.019799523 -0.8390031 0.2511382 -0.028534181 1.9884346 -1.779495
0.74385464 -0.8264768 -0.08215013 -0.3946582 -0.073949866 0.5745689 0.39794257 0.33856788
-1.6799514 -1.0284853 -2.0315452 -1.9509122 0.5408296 0.14318183 0.31507444 0.48922598
-0.629868 -0.08144098 0.013067705 0.18027018 -0.24214046 0.26416504 0.43902734 0.4934515
-0.1356062 -0.81222534 0.55337507 0.086726494 -0.82287174 -0.18782984 -0.030590227 -0.49179855
1.0748171 -0.53390163 -0.059909053 -0.463062 -0.25142685 0.13796072 0.4411152 -0.59116924
