best_brain.pt (torch, 31677 bytes, 2 tensors)

w1 f4 [24, 240]
000000 3f bf 45 40 3d 00 97 40 ce cc f2 bf 87 da c2 3f
       3.0897977 4.718779 -1.8968751 1.5222939
000010 82 da 44 3e f4 c0 c4 3e 16 70 59 bf 04 ea 9e bf
       0.19223979 0.38428462 -0.84936655 -1.2415166
000020 68 9e b9 3e 5b e6 a1 3f aa 05 43 be 53 68 1e 40
       0.36253667 1.2648424 -0.1904513 2.4751174
000030 bb cb 8e bf 92 6e b7 3e d6 d1 79 3d b7 c9 1e 3e
       -1.1155924 0.35826546 0.06099113 0.15506636
000040 58 13 a3 be b9 51 08 bf 67 79 e9 3e de 13 96 bf
       -0.31850696 -0.532497 0.45600435 -1.1724813
000050 41 47 07 bf c4 86 c9 be 3b 7e bf be 2f 31 87 3f
       -0.528431 -0.3936063 -0.37400994 1.0561885
000060 23 c0 90 bf 17 f3 d4 be dd eb 37 3f 5d 22 0d 40
       -1.1308635 -0.41591713 0.71844274 2.2052224
000070 c8 62 1a 3f 81 c0 c2 bf 63 73 9e be 58 aa 6d 3f
       0.6030698 -1.5214998 -0.30947408 0.9283805
000080 23 b0 02 40 39 c8 17 bf 65 48 f4 bf 09 bc d0 3f
       2.0420005 -0.5928989 -1.9084593 1.6307384
000090 34 33 f6 bc b0 13 cc bf 04 a1 50 bf 8b 3c 36 3f
       -0.030053712 -1.5943508 -0.8149569 0.7118613
0000a0 9c 39 69 be 35 b2 b4 3e a5 1b 92 3e 20 4d 2b 40
       -0.22775882 0.3529221 0.28536716 2.6765823
0000b0 7e 90 30 3e 71 a4 03 be 70 77 e8 3e 7d ce 85 3f
       0.1724262 -0.12855698 0.45403624 1.045364
0000c0 aa 73 9a bd 11 31 c8 bd 50 66 e2 bf 88 25 b9 bf
       -0.075415924 -0.09774984 -1.7687473 -1.4464579
0000d0 f0 1d 20 bf dc 92 00 40 bc 33 32 3f 0b af b6 3f
       -0.6254568 2.0089636 0.6961019 1.4272169
0000e0 e9 c5 89 3f 3c c9 a4 bf 3e eb 06 bd 4c c0 d4 3e
       1.0763522 -1.2873912 -0.03293919 0.4155296
0000f0 d8 fb 9a bf 52 06 c1 bc df 1c 82 3f 54 17 60 bd
       -1.2108107 -0.023562584 1.0165061 -0.054709747
000100 ab c6 26 3f f3 ac 43 40 4b 03 9c bf 03 4e 88 bf
       0.65146893 3.057431 -1.2188505 -1.0648807
000110 be 02 bc 3f 68 a3 a7 3f d5 08 79 3e 8f 70 65 3f
       1.4688337 1.3096743 0.24319775 0.89624876
000120 df 8d ef 3f d4 06 1a c0 a0 ae 56 be be af c5 3e
       1.8715171 -2.4066668 -0.20965052 0.38610643
000130 30 e9 0e bf 26 0f 6a 3f 65 26 75 3f df 5f 93 bf
       -0.55824566 0.91429365 0.9576171 -1.1513633
000140 a8 09 a5 3f 48 07 c2 3e 5b 4d 31 be 28 0f fc 3f
       1.2893572 0.3789618 -0.17314665 1.9692125
000150 dc 6a 0a 40 cc 8d 99 3e 1a 38 6b 3f 95 ee 87 bf
       2.1627722 0.29990995 0.9188248 -1.0619684
000160 fd d4 31 be 80 56 c9 3f 9d b9 9f 3f a2 b3 5a 3c
       -0.17366405 1.5729523 1.247852 0.013348492
000170 22 de 36 be 06 e4 d0 be 1f 39 8d 3f 8d 63 56 3f
       -0.17858174 -0.40798968 1.1033057 0.8374565
000180 b6 38 9b 3f 02 83 15 bf b8 e9 f9 bd 70 1c ea bf
       1.2126682 -0.5840303 -0.122027814 -1.8289928
000190 54 98 3a bf 05 42 e4 3f a4 c4 6c 3e 4f c6 d8 3f
       -0.72888684 1.7832648 0.23121887 1.6935519
0001a0 1f 4f 4d bf f4 d8 3a 3f 8a c1 9d be 2d f8 9b 3f
       -0.80198854 0.72987294 -0.3081172 1.2185112
0001b0 ac 9c 4b 3f 42 ed d6 be 74 cd da be c7 b8 8e 3e
       0.7953594 -0.41977888 -0.42734873 0.2787535
0001c0 56 2d 86 bf 75 a7 dd bf 8a 7f fb be 9f df df bf
       -1.0482585 -1.7316729 -0.49120742 -1.7490119
0001d0 33 90 ec bf c6 5e 31 3f 6a 9c 8e bf 29 36 ab bf
       -1.8481506 0.6928524 -1.1141484 -1.3375903
0001e0 66 25 1f bf 2f 43 57 40 42 91 34 c0 b9 6a 32 3f
       -0.6216644 3.3634756 -2.8213658 0.69694096
0001f0 ab f0 4d bf 13 ef 77 3f 20 9f eb bf 09 cc 12 bf
       -0.80445355 0.96849173 -1.8407936 -0.5734258
000200 54 cb 85 bf f8 d8 ab 3e d6 12 72 3f da 85 d2 be
       -1.0452676 0.33563972 0.9455999 -0.41117746
000210 69 57 a0 be 47 28 b9 3e 56 35 b6 3e 77 b8 18 3f
       -0.3131669 0.36163542 0.35587567 0.5965647
000220 78 14 4f 3f fc aa a6 3f af 0c ab 3f de 33 aa be
       0.8089061 1.302093 1.3363246 -0.33242697
000230 b4 14 a6 bf 0f a5 51 be 5e 1c 75 bf 44 71 fd bf
       -1.2975068 -0.20473121 -0.9574641 -1.9800191
000240 fe 86 b0 bf ba 42 fd bd 19 32 b0 3f c0 42 89 3f
       -1.3791196 -0.12366243 1.3765289 1.0723495
000250 f5 df 46 bf 9e 05 2a c0 c8 ad 05 3e 61 14 bc bf
       -0.7768548 -2.6565928 0.13054574 -1.4693719
000260 32 bb 9e be 12 27 51 be 13 b8 07 40 1f 91 e3 bf
       -0.31002194 -0.2042506 2.12061 -1.7778662
000270 29 bd 52 3e 42 3b 96 3f 1d 86 8f 3f b2 ac 3b bf
       0.20579971 1.1736834 1.1212803 -0.7331039
000280 1f ed 9b 3f 0a b8 01 c0 af a8 ac bf f4 a6 4b bf
       1.2181739 -2.0268579 -1.3488978 -0.79551625
000290 7e 4b f4 be 9f 61 49 bf c0 7d 47 bf a8 fa 65 bf
       -0.47713846 -0.7866458 -0.77926254 -0.89835596
0002a0 30 d3 b6 bf 6c bf 5d bf aa 7f 0b 3e ba 2a 9b 3f
       -1.4283199 -0.8662021 0.13622919 1.2122414
0002b0 fe 1f 2e 3d ba 88 08 bf 00 b7 06 bf 23 5b 83 bf
       0.04251098 -0.5333363 -0.52622986 -1.0262188
0002c0 9c cb 00 bf ed 0a 96 be 4d 72 5e 40 5e 36 5e bf
       -0.50310683 -0.2930521 3.4757264 -0.8680171
0002d0 c2 50 b8 bf 2f 92 30 bf ba 2d 96 3d 3a 96 21 bd
       -1.4399645 -0.6897306 0.073329404 -0.039449908
0002e0 27 db 3a bf 82 00 eb 3f ac 75 ac 3d c0 e0 ed be
       -0.7299065 1.835953 0.08420882 -0.46460533
0002f0 89 9f 2a c0 dd bd 83 bf 44 1a 24 3f a5 2c e3 bf
       -2.6659873 -1.0292317 0.6410258 -1.7748
000300 10 92 be 3f c2 e7 b8 bf f3 02 0e 3f 75 80 11 c0
       1.4888325 -1.4445727 0.5547325 -2.2734654
000310 70 86 9e bf 68 21 6e bf 19 39 c4 3e e5 a1 17 3f
       -1.2384777 -0.93019724 0.38324812 0.59231406
000320 4b 28 ec bd 92 6e bc 3d 0a 00 e9 3f 1f 75 14 bf
       -0.11531123 0.09200777 1.8203137 -0.5799121
000330 c6 45 ee 3e e3 44 90 3f a0 cc b7 3e 27 ca 3d 3f
       0.46537608 1.1271023 0.35898304 0.74136585
000340 28 c3 69 bd f2 32 64 3f d6 29 06 3f 9e 82 6e bf
       -0.05707088 0.89140236 0.52407587 -0.93168056
000350 bb 7e 78 3f 19 20 9e 3f 55 f3 ca 3f 3e 46 f3 be
       0.97068375 1.2353545 1.5855509 -0.47514528
000360 35 73 00 c0 84 1e 19 3d 1d 47 66 3f 18 e1 2b bf
       -2.0070317 0.037382618 0.8995226 -0.6714034
000370 31 eb 39 bf c0 13 08 c0 bb ef e0 3f d0 db 67 3f
       -0.726245 -2.1262054 1.757316 0.9056978
000380 29 05 25 3e d4 88 ca 3e ca b4 2f 3e b5 b9 4d bf
       0.1611525 0.39557517 0.1715881 -0.8036149
000390 17 92 9c 3f 10 c1 09 be 9c 0b b5 bf 02 4c 80 bf
       1.2232083 -0.13452554 -1.4144168 -1.0023196
0003a0 32 97 52 3e 28 e1 50 c0 96 db 16 c0 5e 7a 3f 3e
       0.20565489 -3.2637424 -2.3571525 0.18699023
0003b0 70 4e 9a 3e f0 d2 a3 3f c7 3c 2f 3f 10 5e aa bf
       0.30137968 1.2798748 0.68452114 -1.3309956
0003c0 a8 e0 91 40 cf 40 90 bd c6 dc a5 c0 ad 1b 75 be
       4.558674 -0.07043611 -5.1832 -0.23936339
0003d0 46 ed f7 be 65 7f c8 3f 3e 84 02 be d5 32 c3 3f
       -0.48423213 1.5663878 -0.12745759 1.5249888
0003e0 2f e3 55 bf d5 ff f0 bf 65 41 1b c0 49 a4 b7 3f
       -0.8354978 -1.8828074 -2.4258664 1.4347011
0003f0 c9 e6 e8 3e 13 5b 16 3f c5 42 a7 3f 67 64 97 3e
       0.45488575 0.5873272 1.3067251 0.29568788

w2 f4 [240, 7]
000000 ef d9 26 c0 55 e5 19 3d 93 02 10 41 26 db 6a c0
       -2.6070516 0.037572224 9.000628 -3.6696258
000010 80 95 bd 40 a7 c4 08 41 c8 07 b6 c1 bb 74 38 c0
       5.9244995 8.548011 -22.7538 -2.8821247
000020 14 76 a4 40 af b3 1f 3e 2f 46 80 bf f8 4f 56 3f
       5.139414 0.15595888 -1.0021418 0.8371577
000030 24 64 01 41 3c fd 1e 41 dd 2d 93 40 26 2d b5 3f
       8.086948 9.936825 4.5993485 1.4154403
000040 8e 20 dd 3e 8e 80 44 c0 cd 83 3c c0 a3 33 b1 c1
       0.431889 -3.0703464 -2.9455445 -22.150213
000050 b9 68 f7 c1 86 6d b2 be 94 cb 82 bf 0d 59 b4 3f
       -30.926134 -0.34849185 -1.0218377 1.4089676
000060 6a 1d da bf 61 12 32 bf ab 0d c2 bf bc cc a4 40
       -1.7040226 -0.69559294 -1.5160421 5.149992
000070 cb e7 fc bf e4 81 99 3f 36 43 02 bf aa 26 1f bf
       -1.9758238 1.1992764 -0.50883806 -0.6216837
000080 8c c6 be 3f 63 a3 c2 3f d3 97 a4 40 f2 a5 0f 3e
       1.4904342 1.5206112 5.143533 0.14028147
000090 ef e9 3d be 4b 5c 8d 3f 9e af a3 3e a7 91 5e bf
       -0.1854627 1.104379 0.31969923 -0.86941
0000a0 10 62 29 c0 15 6f 12 c0 c4 ef af bf 74 f2 2f be
       -2.6466103 -2.28803 -1.3745046 -0.17182332
0000b0 38 fb 2f bf 97 22 e4 be 20 6d 11 3f bd 3b 94 bf
       -0.68742704 -0.4455764 0.56807137 -1.1580731
0000c0 aa 31 92 c0 08 46 0b 3e 7b e7 a9 bf 6f 28 9f bf
       -4.5685625 0.13600934 -1.3273767 -1.2434214
0000d0 b2 03 ab be 7d 1a 90 3f 96 99 44 40 c8 0f 0a 40
       -0.33401257 1.1258084 3.0718741 2.1572132
0000e0 c0 35 71 3e 91 2b 52 bf 57 90 35 bf 94 37 7d be
       0.2355566 -0.8209773 -0.7092337 -0.24728233
0000f0 92 ea 17 bf 20 aa 86 be b4 0b fd 3d 03 c0 5d bf
       -0.593423 -0.2630167 0.12355748 -0.8662111
000100 26 ed 80 3e 14 aa f8 3f 3e 64 04 c0 c7 02 5d 3f
       0.2518093 1.9426904 -2.0686183 0.8633236
000110 94 b1 37 3f 4d fe 6a bf 4c 04 f8 be 09 5b 48 3f
       0.7175534 -0.9179428 -0.48440778 0.7826391
000120 01 1a 39 3f 7e ec ae bf 26 a6 03 bf e8 de 75 3f
       0.72305304 -1.3665922 -0.514254 0.9604325
000130 df 86 a7 3d 22 98 af 3e 77 d7 32 3e b3 fe 01 bf
       0.081800215 0.34295756 0.17465006 -0.50779265
000140 d2 3d c7 3f ee 30 4c be f7 fb e9 3e 13 a2 62 40
       1.5565741 -0.1994054 0.45700046 3.5411422
000150 ee 57 1f be 06 43 8c bd a8 05 90 3d 2c 17 8e bf
       -0.15560886 -0.06848721 0.07032329 -1.1100821
000160 2c d4 78 3c ea c7 9e bf 87 c8 5f 3f 30 9a 73 bf
       0.0151873045 -1.2404759 0.87415355 -0.95157146
000170 58 4e a2 bc 16 ac 99 3f c1 26 fc bf 1e 50 ca 3f
       -0.019812748 1.2005641 -1.9699327 1.58057
000180 f4 dc df bc 18 02 12 bf 2b 91 ae bd ba e8 1d be
       -0.027327038 -0.57034445 -0.08523782 -0.1542081
000190 6c fa a9 be a3 94 d3 be 47 b2 ec bf 4e f5 ab be
       -0.3319887 -0.41324338 -1.8491906 -0.3358559
0001a0 99 b2 96 bf f0 f3 c8 bf f4 65 a4 3e 32 7c 74 3f
       -1.1773254 -1.5699444 0.32109034 0.95502007
0001b0 aa ec 3b 3f b9 b5 ed bd 4b a0 96 3f 52 71 22 c0
       0.73407996 -0.116069265 1.1767668 -2.5381665
0001c0 59 7e a8 bf b7 01 af 3e 55 f5 4d 3e fa 83 22 3f
       -1.3163558 0.34180996 0.20113118 0.6348263
0001d0 a1 17 be 3f 1d 79 b3 bf d9 f6 86 3d 9b 5d 09 3f
       1.4850961 -1.4021336 0.06590051 0.53658456
0001e0 84 3c 17 3f 9a 24 8f be 69 be 93 3f d0 d9 0d 3f
       0.59076715 -0.27957612 1.1542484 0.5541048
0001f0 c5 dd 11 c0 d1 db 42 40 e4 5a ed be 5b 47 00 40
       -2.2791607 3.0446665 -0.46358407 2.0043552
000200 d9 9a 4c c0 30 11 29 3f 68 46 a2 bf b6 06 f0 bf
       -3.1969512 0.6604185 -1.2677736 -1.8752048
000210 4e 0e aa 3e 2a c8 40 bf 10 db a0 be 6e d7 19 40
       0.3321404 -0.75305426 -0.3141713 2.4037738
000220 01 45 00 c0 a1 bb ff 3f d6 e8 3c 3f c2 ad c1 3f
       -2.0042117 1.9979135 0.7379278 1.5131152
000230 b5 03 58 3e 65 99 d2 3e 42 14 a3 be 7b 57 88 3f
       0.21095164 0.41132656 -0.31851393 1.0651697
000240 a8 a7 84 bf 23 ab 65 3f 49 b4 ac bf 24 74 d9 3f
       -1.0363665 0.8971426 -1.3492519 1.6988568
000250 ae 25 92 bf ce 46 0c c0 2a 6a 34 3f 3a 31 fd 3e
       -1.1417749 -2.1918216 0.70474494 0.4945162
000260 48 25 12 c0 d9 c7 d2 be 90 95 55 3e 84 e9 d8 3e
       -2.2835255 -0.41168097 0.20857835 0.42365658
000270 e5 b1 d7 3f 27 e2 33 bf ea e7 64 3f 37 dd 60 3f
       1.6851164 -0.70266956 0.8941637 0.8783755
000280 46 1b 92 3f c8 cd a2 bf 67 e9 eb 3e 21 17 8d 3f
       1.1414573 -1.271905 0.4607651 1.1022683
000290 88 34 c5 be bd b9 18 40 f6 5f cb 3e 73 b4 97 3f
       -0.3851664 2.3863366 0.3972165 1.1851944
0002a0 b1 c0 da bf 1e c0 d6 3f 4b aa 9f 3f a7 5b 60 bf
       -1.7090055 1.677738 1.2473844 -0.8763985
0002b0 bd 44 30 3f 01 ab e8 bf 8d 13 6a 3f b6 51 06 40
       0.68854886 -1.8177186 0.9143608 2.0987372
0002c0 9f 55 5a bf 58 25 75 3c 7e c8 28 3f da 74 af 3f
       -0.852869 0.014962517 0.65930927 1.3707535
0002d0 12 48 8a bf 34 f9 bc 3f 45 d8 94 bf b9 94 91 3f
       -1.0803244 1.4763551 -1.16285 1.1373512
0002e0 bf 4e 9c 3f d8 6c c1 be 84 11 1f bf 0a 2d 9c 3e
       1.2211531 -0.37778354 -0.621361 0.30503112
0002f0 71 84 89 bd 41 54 d5 bf 63 e2 d9 3f b9 db 9d 3f
       -0.06714714 -1.6666337 1.7022213 1.2332679
000300 7b 42 b5 be df e1 fe 3f 1f c0 65 3d 4d c5 73 bd
       -0.35402283 1.991268 0.056091424 -0.059514333
000310 3b b6 d0 3f 6a 70 40 bf 41 50 65 bf 0d b8 88 bf
       1.6305612 -0.7517153 -0.8957558 -1.0681168
000320 7b 85 35 3e b9 fe d4 3f 70 fd 0e 3c b4 e8 0a 40
       0.177267 1.6640235 0.008727416 2.170453
000330 3e 7a e9 be 04 e6 27 3f 62 de 81 bd e7 14 86 3f
       -0.45601076 0.6558535 -0.06341244 1.0475129
000340 22 44 f5 3f ba eb 10 40 16 c6 b6 3f 6c 3b 18 3d
       1.9161417 2.2643876 1.4279201 0.037166044
000350 9f 55 c5 bd 92 aa 65 3d 26 09 6f be 5a 6e 05 3f
       -0.096354716 0.05607087 -0.23343334 0.5212151
000360 50 f4 39 bf 33 6f 0a bf 18 0b b8 3f a3 07 3a 3f
       -0.72638416 -0.54075927 1.4378386 0.726679
000370 bd 5e 24 40 a4 6d ac 3f 31 ef f3 3e 2d 92 aa 3f
       2.5682824 1.347096 0.47643426 1.3325859
000380 d5 33 4f bf d4 ab 10 c0 9c bf 58 3f 81 39 44 bf
       -0.80938464 -2.2604876 0.8466737 -0.76650244
000390 34 69 00 3e 1e 81 2b 3f 25 92 90 bf f2 c8 52 3f
       0.12540132 0.6699389 -1.12946 0.8233787
0003a0 f0 8d 9f 3e f5 9f ab bf 30 40 8b bf 74 1d 79 3e
       0.31162977 -1.340819 -1.0878963 0.24327642
0003b0 ce 5b 8f 3f cb 93 4c c0 27 6d 31 3f 6a 55 16 3f
       1.1199892 -3.1965206 0.6930718 0.5872408
0003c0 a2 56 43 be 08 b4 17 3e 3c 73 d1 3e b0 82 28 bf
       -0.19076017 0.1481477 0.4090823 -0.65824413
0003d0 42 9a 6f 3f 0f 53 46 bf 7f ba b8 be 71 ce f3 be
       0.93594754 -0.7747049 -0.36079785 -0.4761844
0003e0 f7 87 85 be 8c b0 78 bd 99 df c1 3f f8 65 13 bf
       -0.26080295 -0.060715243 1.5146362 -0.57577467
0003f0 84 51 05 3e c8 1a 5e 3f b6 35 b1 3f 83 1a 9a 3f
       0.13019377 0.86759615 1.3844516 1.2039341
